…
                 all       3987      10507      0.993       0.99      0.996      0.838
                 all       3987      10507      0.994      0.989      0.996      0.849
                 all       3987      10507      0.994      0.993      0.996      0.859
                 all       3987      10507       0.99      0.997      0.996      0.865
100%|██████████████████████████████████████████████████████████████████████████████████████████████████| 148M/148M [00:03<00:00, 50.2MB/s]
Overriding model.yaml nc=80 with nc=3
                 from  n    params  module                                  arguments
  0                -1  1      7040  models.common.Focus                     [3, 64, 3]
  1                -1  1     73984  models.common.Conv                      [64, 128, 3, 2]
  2                -1  3    156928  models.common.C3                        [128, 128, 3]
  3                -1  1    295424  models.common.Conv                      [128, 256, 3, 2]
  4                -1  9   1611264  models.common.C3                        [256, 256, 9]
  5                -1  1   1180672  models.common.Conv                      [256, 512, 3, 2]
  6                -1  9   6433792  models.common.C3                        [512, 512, 9]
  7                -1  1   3540480  models.common.Conv                      [512, 768, 3, 2]
  8                -1  3   5611008  models.common.C3                        [768, 768, 3]
  9                -1  1   7079936  models.common.Conv                      [768, 1024, 3, 2]
 10                -1  1   2624512  models.common.SPP                       [1024, 1024, [3, 5, 7]]
 11                -1  3   9971712  models.common.C3                        [1024, 1024, 3, False]
 12                -1  1    787968  models.common.Conv                      [1024, 768, 1, 1]
 13                -1  1         0  torch.nn.modules.upsampling.Upsample    [None, 2, 'nearest']
 14           [-1, 8]  1         0  models.common.Concat                    [1]
 15                -1  3   6200832  models.common.C3                        [1536, 768, 3, False]
 16                -1  1    394240  models.common.Conv                      [768, 512, 1, 1]
 17                -1  1         0  torch.nn.modules.upsampling.Upsample    [None, 2, 'nearest']
 18           [-1, 6]  1         0  models.common.Concat                    [1]
 19                -1  3   2757632  models.common.C3                        [1024, 512, 3, False]
 20                -1  1    131584  models.common.Conv                      [512, 256, 1, 1]
 21                -1  1         0  torch.nn.modules.upsampling.Upsample    [None, 2, 'nearest']
 22           [-1, 4]  1         0  models.common.Concat                    [1]
 23                -1  3    690688  models.common.C3                        [512, 256, 3, False]
 24                -1  1    590336  models.common.Conv                      [256, 256, 3, 2]
 25          [-1, 20]  1         0  models.common.Concat                    [1]
 26                -1  3   2495488  models.common.C3                        [512, 512, 3, False]
 27                -1  1   2360320  models.common.Conv                      [512, 512, 3, 2]
 28          [-1, 16]  1         0  models.common.Concat                    [1]
 29                -1  3   5807616  models.common.C3                        [1024, 768, 3, False]
 30                -1  1   5309952  models.common.Conv                      [768, 768, 3, 2]
 31          [-1, 12]  1         0  models.common.Concat                    [1]
 32                -1  3  10496000  models.common.C3                        [1536, 1024, 3, False]
 33  [23, 26, 29, 32]  1     61536  models.yolo.Detect                      [3, [[19, 27, 44, 40, 38, 94], [96, 68, 86, 152, 180, 137], [140, 301, 303, 264, 238, 542], [436, 615, 739, 380, 925, 792]], [256, 512, 768, 1024]]
Model Summary: 638 layers, 76670944 parameters, 76670944 gradients, 116.5 GFLOPs
Transferred 824/832 items from yolov5l6.pt
Scaled weight_decay = 0.0005
[34m[1moptimizer:[39m[22m SGD with parameter groups 137 weight, 141 weight (no decay), 141 bias
…
